…
I0720 12:41:33.240710  7777 solver.cpp:102] Creating training net from net file: config/letnet5-regression/train_val.prototxt
I0720 12:41:33.248566  7777 net.cpp:294] The NetState phase (0) differed from the phase (1) specified by a rule in layer data
I0720 12:41:33.248724  7777 net.cpp:51] Initializing net from parameters: 
name: "RegressionExample"
state {
  phase: TRAIN
  level: 0
  stage: ""
}
layer {
  name: "data"
  type: "HDF5Data"
  top: "data"
  top: "freq"
  include {
    phase: TRAIN
  }
  hdf5_data_param {
    source: "dataset/HDF5/train_h5.txt"
    batch_size: 50
  }
}
layer {
  name: "conv1"
  type: "Convolution"
  bottom: "data"
  top: "conv1"
  param {
    lr_mult: 1
    decay_mult: 1
  }
  param {
    lr_mult: 1
    decay_mult: 0
  }
  convolution_param {
    num_output: 96
    kernel_size: 5
    stride: 2
    weight_filler {
      type: "gaussian"
      std: 0.01
    }
    bias_filler {
      type: "constant"
      value: 0
    }
  }
}
layer {
  name: "relu1"
  type: "ReLU"
  bottom: "conv1"
  top: "conv1"
}
layer {
  name: "pool1"
  type: "Pooling"
  bottom: "conv1"
  top: "pool1"
  pooling_param {
    pool: MAX
    kernel_size: 3
    stride: 2
  }
}
layer {
  name: "conv2"
  type: "Convolution"
  bottom: "pool1"
  top: "conv2"
  param {
    lr_mult: 1
    decay_mult: 1
  }
  param {
    lr_mult: 1
    decay_mult: 0
  }
  convolution_param {
    num_output: 96
    pad: 2
    kernel_size: 3
    weight_filler {
      type: "gaussian"
      std: 0.01
    }
    bias_filler {
      type: "constant"
      value: 0
    }
  }
}
layer {
  name: "relu2"
  type: "ReLU"
  bottom: "conv2"
  top: "conv2"
}
layer {
  name: "pool2"
  type: "Pooling"
  bottom: "conv2"
  top: "pool2"
  pooling_param {
    pool: MAX
    kernel_size: 3
    stride: 2
  }
}
layer {
  name: "conv3"
  type: "Convolution"
  bottom: "pool2"
  top: "conv3"
  param {
    lr_mult: 1
    decay_mult: 1
  }
  param {
    lr_mult: 1
    decay_mult: 0
  }
  convolution_param {
    num_output: 128
    pad: 1
    kernel_size: 3
    weight_filler {
      type: "gaussian"
      std: 0.01
    }
    bias_filler {
      type: "constant"
      value: 0
    }
  }
}
layer {
  name: "relu3"
  type: "ReLU"
  bottom: "conv3"
  top: "conv3"
}
layer {
  name: "pool3"
  type: "Pooling"
  bottom: "conv3"
  top: "pool3"
  pooling_param {
    pool: MAX
    kernel_size: 3
    stride: 2
  }
}
layer {
  name: "fc4"
  type: "InnerProduct"
  bottom: "pool3"
  top: "fc4"
  param {
    lr_mult: 1
    decay_mult: 1
  }
  param {
    lr_mult: 1
    decay_mult: 0
  }
  inner_product_param {
    num_output: 192
    weight_filler {
      type: "gaussian"
      std: 0.005
    }
    bias_filler {
      type: "constant"
      value: 0
    }
  }
}
layer {
  name: "relu4"
  type: "ReLU"
  bottom: "fc4"
  top: "fc4"
}
layer {
  name: "drop4"
  type: "Dropout"
  bottom: "fc4"
  top: "fc4"
  dropout_param {
    dropout_ratio: 0.35
  }
}
layer {
  name: "fc5"
  type: "InnerProduct"
  bottom: "fc4"
  top: "fc5"
  param {
    lr_mult: 1
    decay_mult: 1
  }
  param {
    lr_mult: 1
    decay_mult: 0
  }
  inner_product_param {
    num_output: 2
    weight_filler {
      type: "gaussian"
      std: 0.005
    }
    bias_filler {
      type: "constant"
      value: 0
    }
  }
}
layer {
  name: "sigmoid5"
  type: "Sigmoid"
  bottom: "fc5"
  top: "pred"
}
layer {
  name: "loss"
  type: "EuclideanLoss"
  bottom: "pred"
  bottom: "freq"
  top: "loss"
}
I0720 12:41:33.248816  7777 layer_factory.hpp:77] Creating layer data
I0720 12:41:33.248832  7777 net.cpp:84] Creating Layer data
I0720 12:41:33.248841  7777 net.cpp:380] data -> data
I0720 12:41:33.248890  7777 net.cpp:380] data -> freq
I0720 12:41:33.248903  7777 hdf5_data_layer.cpp:80] Loading list of HDF5 filenames from: dataset/HDF5/train_h5.txt
I0720 12:41:33.248981  7777 hdf5_data_layer.cpp:94] Number of HDF5 files: 5
I0720 12:41:33.257753  7777 hdf5.cpp:32] Datatype class: H5T_FLOAT
I0720 12:41:42.142385  7777 net.cpp:122] Setting up data
I0720 12:41:42.142421  7777 net.cpp:129] Top shape: 50 3 100 100 (1500000)
I0720 12:41:42.142426  7777 net.cpp:129] Top shape: 50 2 (100)
I0720 12:41:42.142428  7777 net.cpp:137] Memory required for data: 6000400
I0720 12:41:42.142441  7777 layer_factory.hpp:77] Creating layer conv1
I0720 12:41:42.142485  7777 net.cpp:84] Creating Layer conv1
I0720 12:41:42.142493  7777 net.cpp:406] conv1 <- data
I0720 12:41:42.142508  7777 net.cpp:380] conv1 -> conv1
I0720 12:41:42.293093  7777 net.cpp:122] Setting up conv1
I0720 12:41:42.293124  7777 net.cpp:129] Top shape: 50 96 48 48 (11059200)
I0720 12:41:42.293128  7777 net.cpp:137] Memory required for data: 50237200
I0720 12:41:42.293156  7777 layer_factory.hpp:77] Creating layer relu1
I0720 12:41:42.293184  7777 net.cpp:84] Creating Layer relu1
I0720 12:41:42.293189  7777 net.cpp:406] relu1 <- conv1
I0720 12:41:42.293195  7777 net.cpp:367] relu1 -> conv1 (in-place)
I0720 12:41:42.293375  7777 net.cpp:122] Setting up relu1
I0720 12:41:42.293387  7777 net.cpp:129] Top shape: 50 96 48 48 (11059200)
I0720 12:41:42.293390  7777 net.cpp:137] Memory required for data: 94474000
I0720 12:41:42.293396  7777 layer_factory.hpp:77] Creating layer pool1
I0720 12:41:42.293404  7777 net.cpp:84] Creating Layer pool1
I0720 12:41:42.293407  7777 net.cpp:406] pool1 <- conv1
I0720 12:41:42.293413  7777 net.cpp:380] pool1 -> pool1
I0720 12:41:42.293464  7777 net.cpp:122] Setting up pool1
I0720 12:41:42.293473  7777 net.cpp:129] Top shape: 50 96 24 24 (2764800)
I0720 12:41:42.293475  7777 net.cpp:137] Memory required for data: 105533200
I0720 12:41:42.293479  7777 layer_factory.hpp:77] Creating layer conv2
I0720 12:41:42.293493  7777 net.cpp:84] Creating Layer conv2
I0720 12:41:42.293498  7777 net.cpp:406] conv2 <- pool1
I0720 12:41:42.293504  7777 net.cpp:380] conv2 -> conv2
I0720 12:41:42.296805  7777 net.cpp:122] Setting up conv2
I0720 12:41:42.296831  7777 net.cpp:129] Top shape: 50 96 26 26 (3244800)
I0720 12:41:42.296835  7777 net.cpp:137] Memory required for data: 118512400
I0720 12:41:42.296844  7777 layer_factory.hpp:77] Creating layer relu2
I0720 12:41:42.296850  7777 net.cpp:84] Creating Layer relu2
I0720 12:41:42.296854  7777 net.cpp:406] relu2 <- conv2
I0720 12:41:42.296859  7777 net.cpp:367] relu2 -> conv2 (in-place)
I0720 12:41:42.297292  7777 net.cpp:122] Setting up relu2
I0720 12:41:42.297304  7777 net.cpp:129] Top shape: 50 96 26 26 (3244800)
I0720 12:41:42.297319  7777 net.cpp:137] Memory required for data: 131491600
I0720 12:41:42.297322  7777 layer_factory.hpp:77] Creating layer pool2
I0720 12:41:42.297332  7777 net.cpp:84] Creating Layer pool2
I0720 12:41:42.297334  7777 net.cpp:406] pool2 <- conv2
I0720 12:41:42.297341  7777 net.cpp:380] pool2 -> pool2
I0720 12:41:42.297392  7777 net.cpp:122] Setting up pool2
I0720 12:41:42.297400  7777 net.cpp:129] Top shape: 50 96 13 13 (811200)
I0720 12:41:42.297403  7777 net.cpp:137] Memory required for data: 134736400
I0720 12:41:42.297407  7777 layer_factory.hpp:77] Creating layer conv3
I0720 12:41:42.297416  7777 net.cpp:84] Creating Layer conv3
I0720 12:41:42.297420  7777 net.cpp:406] conv3 <- pool2
I0720 12:41:42.297426  7777 net.cpp:380] conv3 -> conv3
I0720 12:41:42.299353  7777 net.cpp:122] Setting up conv3
I0720 12:41:42.299377  7777 net.cpp:129] Top shape: 50 128 13 13 (1081600)
I0720 12:41:42.299382  7777 net.cpp:137] Memory required for data: 139062800
I0720 12:41:42.299391  7777 layer_factory.hpp:77] Creating layer relu3
I0720 12:41:42.299399  7777 net.cpp:84] Creating Layer relu3
I0720 12:41:42.299403  7777 net.cpp:406] relu3 <- conv3
I0720 12:41:42.299408  7777 net.cpp:367] relu3 -> conv3 (in-place)
I0720 12:41:42.299839  7777 net.cpp:122] Setting up relu3
I0720 12:41:42.299865  7777 net.cpp:129] Top shape: 50 128 13 13 (1081600)
I0720 12:41:42.299881  7777 net.cpp:137] Memory required for data: 143389200
I0720 12:41:42.299885  7777 layer_factory.hpp:77] Creating layer pool3
I0720 12:41:42.299891  7777 net.cpp:84] Creating Layer pool3
I0720 12:41:42.299902  7777 net.cpp:406] pool3 <- conv3
I0720 12:41:42.299911  7777 net.cpp:380] pool3 -> pool3
I0720 12:41:42.299968  7777 net.cpp:122] Setting up pool3
I0720 12:41:42.299979  7777 net.cpp:129] Top shape: 50 128 6 6 (230400)
I0720 12:41:42.299983  7777 net.cpp:137] Memory required for data: 144310800
I0720 12:41:42.299988  7777 layer_factory.hpp:77] Creating layer fc4
I0720 12:41:42.299996  7777 net.cpp:84] Creating Layer fc4
I0720 12:41:42.300000  7777 net.cpp:406] fc4 <- pool3
I0720 12:41:42.300006  7777 net.cpp:380] fc4 -> fc4
I0720 12:41:42.309195  7777 net.cpp:122] Setting up fc4
I0720 12:41:42.309208  7777 net.cpp:129] Top shape: 50 192 (9600)
I0720 12:41:42.309211  7777 net.cpp:137] Memory required for data: 144349200
I0720 12:41:42.309218  7777 layer_factory.hpp:77] Creating layer relu4
I0720 12:41:42.309223  7777 net.cpp:84] Creating Layer relu4
I0720 12:41:42.309227  7777 net.cpp:406] relu4 <- fc4
I0720 12:41:42.309232  7777 net.cpp:367] relu4 -> fc4 (in-place)
I0720 12:41:42.309422  7777 net.cpp:122] Setting up relu4
I0720 12:41:42.309432  7777 net.cpp:129] Top shape: 50 192 (9600)
I0720 12:41:42.309434  7777 net.cpp:137] Memory required for data: 144387600
I0720 12:41:42.309437  7777 layer_factory.hpp:77] Creating layer drop4
I0720 12:41:42.309445  7777 net.cpp:84] Creating Layer drop4
I0720 12:41:42.309449  7777 net.cpp:406] drop4 <- fc4
I0720 12:41:42.309454  7777 net.cpp:367] drop4 -> fc4 (in-place)
I0720 12:41:42.309494  7777 net.cpp:122] Setting up drop4
I0720 12:41:42.309500  7777 net.cpp:129] Top shape: 50 192 (9600)
I0720 12:41:42.309504  7777 net.cpp:137] Memory required for data: 144426000
I0720 12:41:42.309506  7777 layer_factory.hpp:77] Creating layer fc5
I0720 12:41:42.309514  7777 net.cpp:84] Creating Layer fc5
I0720 12:41:42.309517  7777 net.cpp:406] fc5 <- fc4
I0720 12:41:42.309523  7777 net.cpp:380] fc5 -> fc5
I0720 12:41:42.309622  7777 net.cpp:122] Setting up fc5
I0720 12:41:42.309629  7777 net.cpp:129] Top shape: 50 2 (100)
I0720 12:41:42.309633  7777 net.cpp:137] Memory required for data: 144426400
I0720 12:41:42.309640  7777 layer_factory.hpp:77] Creating layer sigmoid5
I0720 12:41:42.309646  7777 net.cpp:84] Creating Layer sigmoid5
I0720 12:41:42.309649  7777 net.cpp:406] sigmoid5 <- fc5
I0720 12:41:42.309655  7777 net.cpp:380] sigmoid5 -> pred
I0720 12:41:42.310084  7777 net.cpp:122] Setting up sigmoid5
I0720 12:41:42.310096  7777 net.cpp:129] Top shape: 50 2 (100)
I0720 12:41:42.310112  7777 net.cpp:137] Memory required for data: 144426800
I0720 12:41:42.310115  7777 layer_factory.hpp:77] Creating layer loss
I0720 12:41:42.310122  7777 net.cpp:84] Creating Layer loss
I0720 12:41:42.310127  7777 net.cpp:406] loss <- pred
I0720 12:41:42.310132  7777 net.cpp:406] loss <- freq
I0720 12:41:42.310138  7777 net.cpp:380] loss -> loss
I0720 12:41:42.310178  7777 net.cpp:122] Setting up loss
…
